…
    "batch_size": 16,
    "max_epochs": 200,
    "pass_device": true,
    "model_args": {
        "num_grids_height": 20,
        "num_grids_width": 20,
        "input_dim": 2,
        "output_dim": 1,
        "hidden_dim": 32,
        "cheb_k": 3,
        "num_layers": 3,
        "device": "cuda:0"
    }
}
==========================================================================================
Layer (type:depth-idx)                   Output Shape              Param #
==========================================================================================
GridGCN                                  [16, 20, 20, 1]           --
├─Linear: 1-1                            [16, 400, 32]             96
├─ModuleList: 1-2                        --                        --
│    └─GCN: 2-1                          [16, 400, 32]             6,176
│    └─GCN: 2-2                          [16, 400, 32]             6,176
│    └─GCN: 2-3                          [16, 400, 32]             6,176
├─Sequential: 1-3                        [16, 400, 1]              --
│    └─Linear: 2-4                       [16, 400, 16]             528
│    └─ReLU: 2-5                         [16, 400, 16]             --
│    └─Linear: 2-6                       [16, 400, 1]              17
==========================================================================================
Total params: 19,169
Trainable params: 19,169
Non-trainable params: 0
Total mult-adds (M): 0.01
==========================================================================================
Input size (MB): 0.05
Forward/backward pass size (MB): 7.42
Params size (MB): 0.08
Estimated Total Size (MB): 7.55
==========================================================================================
…
