…
    "max_epochs": 200,
    "pass_device": true,
    "model_args": {
        "num_grids_height": 20,
        "num_grids_width": 20,
        "input_dim": 3,
        "output_dim": 1,
        "hidden_dim": 32,
        "grid_embedding_dim": 16,
        "cheb_k": 3,
        "num_layers": 3,
        "device": "cuda:0"
    }
}
==========================================================================================
Layer (type:depth-idx)                   Output Shape              Param #
==========================================================================================
GridGCN                                  [64, 20, 20, 1]           12,800
├─Linear: 1-1                            [64, 400, 32]             128
├─ModuleList: 1-2                        --                        --
│    └─GCN: 2-1                          [64, 400, 32]             9,248
│    └─GCN: 2-2                          [64, 400, 32]             9,248
│    └─GCN: 2-3                          [64, 400, 32]             9,248
├─Sequential: 1-3                        [64, 400, 1]              --
│    └─Linear: 2-4                       [64, 400, 16]             528
│    └─ReLU: 2-5                         [64, 400, 16]             --
│    └─Linear: 2-6                       [64, 400, 1]              17
==========================================================================================
Total params: 41,217
Trainable params: 41,217
Non-trainable params: 0
Total mult-adds (M): 0.04
==========================================================================================
Input size (MB): 0.31
Forward/backward pass size (MB): 29.70
Params size (MB): 0.11
Estimated Total Size (MB): 30.12
==========================================================================================
…
