…
    "batch_size": 32,
    "max_epochs": 200,
    "pass_device": true,
    "model_args": {
        "num_grids_height": 20,
        "num_grids_width": 20,
        "input_dim": 2,
        "output_dim": 1,
        "hidden_dim": 64,
        "cheb_k": 3,
        "num_layers": 3,
        "device": "cuda:0"
    }
}
==========================================================================================
Layer (type:depth-idx)                   Output Shape              Param #
==========================================================================================
GridGCN                                  [32, 20, 20, 1]           --
├─Linear: 1-1                            [32, 400, 64]             192
├─ModuleList: 1-2                        --                        --
│    └─GCN: 2-1                          [32, 400, 64]             24,640
│    └─GCN: 2-2                          [32, 400, 64]             24,640
│    └─GCN: 2-3                          [32, 400, 64]             24,640
├─Sequential: 1-3                        [32, 400, 1]              --
│    └─Linear: 2-4                       [32, 400, 32]             2,080
│    └─ReLU: 2-5                         [32, 400, 32]             --
│    └─Linear: 2-6                       [32, 400, 1]              33
==========================================================================================
Total params: 76,225
Trainable params: 76,225
Non-trainable params: 0
Total mult-adds (M): 0.07
==========================================================================================
Input size (MB): 0.10
Forward/backward pass size (MB): 29.59
Params size (MB): 0.30
Estimated Total Size (MB): 30.00
==========================================================================================
…
