…
    "model_args": {
        "num_grids_height": 20,
        "num_grids_width": 20,
        "input_dim": 3,
        "output_dim": 1,
        "input_embedding_dim": 32,
        "grid_embedding_dim": 32,
        "feed_forward_dim": 128,
        "num_heads": 4,
        "num_layers": 3,
        "dropout": 0
    }
}
==========================================================================================
Layer (type:depth-idx)                   Output Shape              Param #
==========================================================================================
GridGAT                                  [32, 20, 20, 1]           12,800
├─Linear: 1-1                            [32, 400, 32]             128
├─ModuleList: 1-2                        --                        --
│    └─SelfAttentionLayer: 2-1           [32, 400, 64]             --
│    │    └─AttentionLayer: 3-1          [32, 400, 64]             16,640
│    │    └─Dropout: 3-2                 [32, 400, 64]             --
│    │    └─LayerNorm: 3-3               [32, 400, 64]             128
│    │    └─Sequential: 3-4              [32, 400, 64]             16,576
│    │    └─Dropout: 3-5                 [32, 400, 64]             --
│    │    └─LayerNorm: 3-6               [32, 400, 64]             128
│    └─SelfAttentionLayer: 2-2           [32, 400, 64]             --
│    │    └─AttentionLayer: 3-7          [32, 400, 64]             16,640
│    │    └─Dropout: 3-8                 [32, 400, 64]             --
│    │    └─LayerNorm: 3-9               [32, 400, 64]             128
│    │    └─Sequential: 3-10             [32, 400, 64]             16,576
│    │    └─Dropout: 3-11                [32, 400, 64]             --
│    │    └─LayerNorm: 3-12              [32, 400, 64]             128
│    └─SelfAttentionLayer: 2-3           [32, 400, 64]             --
│    │    └─AttentionLayer: 3-13         [32, 400, 64]             16,640
│    │    └─Dropout: 3-14                [32, 400, 64]             --
│    │    └─LayerNorm: 3-15              [32, 400, 64]             128
│    │    └─Sequential: 3-16             [32, 400, 64]             16,576
│    │    └─Dropout: 3-17                [32, 400, 64]             --
│    │    └─LayerNorm: 3-18              [32, 400, 64]             128
├─Sequential: 1-3                        [32, 400, 1]              --
│    └─Linear: 2-4                       [32, 400, 64]             4,160
│    └─ReLU: 2-5                         [32, 400, 64]             --
│    └─Linear: 2-6                       [32, 400, 1]              65
==========================================================================================
Total params: 117,569
Trainable params: 117,569
Non-trainable params: 0
Total mult-adds (M): 3.35
==========================================================================================
Input size (MB): 0.15
Forward/backward pass size (MB): 186.88
Params size (MB): 0.42
Estimated Total Size (MB): 187.45
==========================================================================================
…
